server/models/hmarl/meta/abr_dqn_1_meta.model (torch, 141531 bytes, 9 tensors)

r_fc.weight f4 [128, 3]
-0.49127212 0.059918046 -0.2290606 0.5651944 0.12804258 0.26141754 0.053352576 0.265587
-0.17430715 -0.5230204 0.42811838 0.55414796 0.5710701 0.37196997 -0.14962102 -0.36943072
0.4690852 0.28249523 -0.46090776 -0.006318251 0.352966 -0.35221663 0.3643284 -0.30456853
-0.27047202 0.026343584 0.25118196 0.2665273 -0.21563983 -0.00018734304 -0.56895506 0.45796326
-0.47115386 0.3909784 0.48655936 -0.49769816 0.5090125 0.14205173 -0.5128688 0.49551204
-0.14957051 0.39240992 -0.30643997 0.18439841 -0.4531787 -0.22655287 0.14491996 0.57289416
0.027137144 0.14579323 -0.27067333 0.21402863 0.3357657 0.19584768 -0.29798606 -0.30212247
0.26835853 0.39409524 -0.49963573 0.26371846 -0.49572986 -0.19942448 -0.09969087 -0.26513922
0.014699134 0.38317215 -0.51762754 0.36490119 -0.55153805 0.5401562 -0.33420265 0.47327322
-0.49416244 0.48392946 -0.034194995 0.02027875 0.26695642 0.07390587 0.2552582 -0.31966215
0.50998235 -0.14476249 -0.5056086 -0.004037649 -0.56236786 0.24736448 -0.42112234 0.14708838
-0.057810817 0.27053204 0.122123994 0.3094974 -0.23481064 -0.19070634 -0.20649856 0.40201968
-0.5667761 -0.32763878 0.30133227 -0.5691842 0.41569722 -0.07866013 0.5288246 0.35345536
-0.23831777 -0.100278705 -0.19822657 0.48016945 -0.4905926 0.018476415 -0.080776446 0.18417302
-0.22717863 -0.43080807 -0.40026194 0.43372455 -0.4498883 -0.08068016 0.35014793 0.21454784
0.45796058 0.24347419 -0.08201895 -0.19470745 0.4357 0.41896087 -0.31251904 -0.42110816
0.5752797 -0.076201685 -0.5102093 0.45990282 0.26292446 -0.4970699 -0.56913054 -0.30853665
-0.041443698 -0.23780929 0.17441191 0.2031818 0.08725981 0.08991606 -0.19286898 -0.16790713
-0.0721886 0.22063354 -0.09325327 -0.47011638 -0.38082328 0.14574085 -0.5095536 -0.17055279
0.08314811 0.25377262 0.22563557 0.4744047 -0.04870534 -0.047077615 -0.0057180235 0.14516698
0.20379297 0.31300652 -0.1662534 0.030856404 0.47610283 0.02250787 -0.13798538 0.43596676
0.2053063 0.5267221 -0.4897892 -0.5332344 -0.44568837 0.44299075 0.22606215 0.4782109
-0.3019712 0.46394074 0.043404534 0.2686184 0.02198459 0.57018477 0.39921585 -0.4581926
0.4787138 0.016897352 -0.47900134 -0.43185616 -0.5470376 0.4181287 0.3791106 -0.3450237
0.09046708 -0.18454921 0.20113857 -0.19135462 -0.17056538 -0.22738263 -0.23673837 -0.38402697
0.016971959 0.56927335 -0.029915147 -0.48704925 -0.19614053 -0.5158159 -0.20436876 -0.012425758
-0.054004353 -0.07539615 0.4720716 -0.4387327 -0.4266546 -0.03845419 0.13190638 -0.55661845
-0.4225139 -0.077854805 0.55044085 0.33911136 0.29737866 0.53901464 0.13931 -0.54169625
0.27412328 0.0010135934 0.060873277 0.12726368 -0.25083837 -0.48486432 0.50685334 0.56488323
0.1319021 0.46592602 0.07572892 0.18273662 -0.013358 -0.25610366 0.4713163 -0.55446625
-0.43518484 0.13852772 0.44822857 -0.16497476 -0.4492919 -0.25847304 -0.5047136 0.29804242
-0.0061708954 0.27972224 -0.26825246 -0.28144494 0.27319607 -0.2687528 -0.35921928 0.2704663
00000000: 0588 fbbe a06c 753d dd8e 6abe 95b0 103f
00000010: 981d 033e 85d8 853e 3b88 5a3d 05fb 873e
00000020: 937d 32be aae4 05bf 5532 db3e a4dc 0d3f
00000030: a631 123f d972 be3e 4136 19be 0626 bdbe
00000040: ef2b f03e 37a3 903e 1afc ebbe 5509 cfbb
00000050: f6b7 b43e bd55 b4be 4189 ba3e 68f0 9bbe
00000060: 4f7b 8abe 80ce d73c ec9a 803e 4476 883e
00000070: b0d0 5cbe 8471 44b9 0aa7 11bf 297a ea3e
00000080: 143b f1be 522e c83e 4f1e f93e 4bd2 febe
00000090: a54e 023f 0276 113e 5f4b 03bf c1b3 fd3e
000000a0: 0329 19be f4e9 c83e b3e5 9cbe f0d2 3c3e
000000b0: 0a07 e8be 7afd 67be e665 143e 31a9 123f
000000c0: b74e de3c d24a 153e b295 8abe 522a 5b3e
000000d0: 7be9 ab3e 4b8c 483e a191 98be ccaf 9abe
000000e0: 4a66 893e dac6 c93e 41d0 ffbe 1b06 873e
000000f0: 4ed0 fdbe ee35 4cbe ba2a ccbd 54c0 87be
00000100: a3d4 703c 242f c43e 3d83 04bf 54d4 ba3e
00000110: 9931 0dbf ad47 0a3f 9c1c abbe de50 f23e
00000120: dc02 fdbe 9ac5 f73e 0d10 0cbd 9f1f a63c
00000130: 83ae 883e f65b 973d 34b1 823e c2aa a3be
00000140: 348e 023f 9e3c 14be 916f 01bf 414e 84bb
00000150: 57f7 0fbf 1d4d 7d3e 599d d7be 569e 163e
00000160: 09cb 6cbd 2d83 8a3e 251c fa3d 7176 9e3e
00000170: 3372 70be 8648 43be 5c74 53be 86d5 cd3e
00000180: 3d18 11bf 45c0 a7be 3948 9a3e 0eb6 11bf
00000190: 44d6 d43e 9018 a1bd 0d61 073f 1af8 b43e
000001a0: 9309 74be ec5e cdbd e8fb 4abe c5d8 f53e
000001b0: f42e fbbe da5b 973c 1f6e a5bd da97 3c3e
000001c0: 84a1 68be e092 dcbe 22ef ccbe 2511 de3e
000001d0: c257 e6be a43b a5bd 9746 b33e 6eb2 5b3e
000001e0: cf79 ea3e 4c51 793e 8df9 a7bd 6461 47be
000001f0: 1214 df3e 0a82 d63e 7f02 a0be 7d9b d7be
00000200: 8845 133f a10f 9cbd 149d 02bf 6278 eb3e
00000210: 099e 863e f27f febe 8ab2 11bf 84f8 9dbe
00000220: dec0 29bd 4784 73be 0999 323e e40e 503e
00000230: 45b5 b23d e925 b83d 727f 45be d9ef 2bbe
00000240: 9ed7 93bd c2ed 613e 92fb bebd 18b3 f0be
00000250: 45fb c2be 173d 153e 1b72 02bf 64a5 2ebe
00000260: 8e49 aa3d 7cee 813e 030d 673e 2ce5 f23e
00000270: 407f 47bd 75d4 40bd 425e bbbb a7a6 143e
00000280: 1baf 503e 6442 a03e 553e 2abe 92c6 fc3c
00000290: c0c3 f33e 6d62 b83c 0a4c 0dbe 0937 df3e
000002a0: d13b 523e 42d7 063f a6c5 fabe 0d82 08bf
000002b0: 4431 e4be afcf e23e d67c 673e 0fd8 f43e
000002c0: f89b 9abe a489 ed3e f4c8 313d 5a88 893e
000002d0: 0719 b43c a1f7 113f 0566 cc3e 3898 eabe
000002e0: fa19 f53e 516c 8a3c aa3f f5be 401c ddbe
000002f0: a80a 0cbf f714 d63e c91a c23e f2a6 b0be
00000300: ce46 b93d 78fa 3cbe 45f7 4d3e 77f2 43be
00000310: b1a8 2ebe fed6 68be 8b6b 72be 2f9f c4be
00000320: c708 8b3c e6bb 113f 9c10 f5bc 855e f9be
00000330: 10d9 48be 830c 04bf 0b46 51be 6895 4bbc
00000340: ab33 5dbd 4c69 9abd 5eb3 f13e 93a1 e0be
00000350: 7972 dabe 2482 1dbd 7712 073e 8c7e 0ebf
00000360: be53 d8be 5772 9fbd b1e9 0c3f 01a0 ad3e
00000370: 0442 983e ddfc 093f 48a7 0e3e 9bac 0abf
00000380: e359 8c3e 8dda 843a 4256 793d 6951 023e
00000390: e36d 80be 2340 f8be 24c1 013f 309c 103f
000003a0: 5811 073e db8d ee3e c417 9b3d 4f1f 3b3e
000003b0: 83db 5abc 0520 83be 5f50 f13e 80f1 0dbf
000003c0: 8cd0 debe 36da 0d3e 377e e53e 25ef 28be
000003d0: 9709 e6be 9456 84be e934 01bf 0499 983e
000003e0: 3935 cabb c137 8f3e 6358 89be 8d19 90be
000003f0: 5be0 8b3e f899 89be 97eb b7be 8f7a 8a3e

r_fc.bias f4 [128]
-0.42417425 -0.18566157 0.5657532 0.37376934 0.5222261 0.49972078 -0.17790301 -0.48769566
-0.30811682 -0.18686491 0.13128611 0.549711 0.18545187 0.29130694 0.028577592 -0.03790111
-0.12824403 0.38123754 -0.18368277 -0.20624061 0.13193466 0.3482913 -0.5029985 0.3794524
-0.02366345 -0.24119736 -0.1562364 -0.44552717 0.17394479 -0.3311567 0.33949134 -0.44949654
-0.5710827 0.11844774 0.09458188 0.34708384 -0.29647642 -0.45604178 0.023659045 -0.4313412
-0.2439956 0.54162234 -0.37584183 0.092338234 -0.5069236 -0.3219368 -0.27302903 0.11078506
-0.4745497 0.02712448 -0.38380134 0.34753662 0.5016562 0.23572244 0.5634704 -0.14573802
0.07993987 -0.13252656 -0.551106 0.00090698263 -0.4084499 -0.10702746 0.49862427 0.08480976
0.31497088 0.37068608 -0.5429789 -0.40668714 -0.21236297 0.29916367 -0.07189651 0.29723847
-0.36719376 0.1428521 0.214368 0.044062715 0.3715131 0.47900665 -0.4784917 -0.36822
-0.2551589 -0.19456464 0.16979544 0.00056636514 0.18927023 0.017173205 -0.20019352 -0.04020759
0.19337155 0.5429295 -0.00485096 0.4149528 -0.18030943 0.5102586 0.37647143 -0.4641484
-0.04476446 0.31608573 0.46494773 -0.19825383 -0.26269516 -0.5566181 0.21766578 -0.17969626
0.1976763 -0.1982625 -0.14891171 -0.05992135 0.4054824 0.3787302 0.19597837 0.06632309
-0.2952976 0.27717534 0.3146516 0.011220693 0.3433345 -0.20055975 0.35290495 -0.14353079
0.52954936 0.36173546 -0.2935022 -0.54220754 0.17633702 0.34070894 -0.55724245 0.3221425
00000000: 5e2d d9be 111e 3ebe 34d5 103f b25e bf3e
00000010: 9cb0 053f 67db ff3e 352c 36be 3fb3 f9be
00000020: 7dc1 9dbe 8459 3fbe de6f 063e dcb9 0c3f
00000030: 18e7 3d3e 2f26 953e 8e1b ea3c 323e 1bbd
00000040: 6752 03be 9131 c33e 5617 3cbe bd30 53be
00000050: e119 073e 3d53 b23e 82c4 00bf 9647 c23e
00000060: dad9 c1bc 71fc 76be 6ffc 1fbe 231c e4be
00000070: 951e 323e 5f8d a9be cfd1 ad3e 6924 e6be
00000080: 7a32 12bf bb94 f23d 25b4 c13d f9b4 b13e
00000090: c2cb 97be 4f7e e9be 9dd0 c13c c1d8 dcbe
000000a0: fcd9 79be c3a7 0a3f 576e c0be d41b bd3d
000000b0: bfc5 01bf e6d4 a4be 76ca 8bbe 47e3 e23d
000000c0: 2ef8 f2be 2834 de3c 9c81 c4be 52f0 b13e
000000d0: 8a6c 003f 3961 713e 993f 103f 593c 15be
000000e0: 84b7 a33d 0bb5 07be 4815 0dbf 93c2 6d3a
000000f0: 5820 d1be 3731 dbbd ae4b ff3e bdb0 ad3d
00000100: dd43 a13e 91ca bd3e aa00 0bbf 4c39 d0be
00000110: ae75 59be fb2b 993e 7a3e 93bd a42f 983e
00000120: d200 bcbe d247 123e 4983 5b3e 1b7b 343d
00000130: f736 be3e 5c40 f53e ddfc f4be 5587 bcbe
00000140: 30a4 82be f43b 47be dbde 2d3e 1f78 143a
00000150: 0ed0 413e d2ae 8c3c 88ff 4cbe b7b0 24bd
00000160: 3103 463e 6dfd 0a3f cdf4 9ebb b274 d43e
00000170: 09a3 38be 4fa0 023f ddc0 c03e dca4 edbe
00000180: f05a 37bd fdd5 a13e a10d ee3e 0d03 4bbe
00000190: fb7f 86be 867e 0ebf c7e3 5e3e 4c02 38be
000001a0: a86b 4a3e 5305 4bbe 507c 18be 1770 75bd
000001b0: 649b cf3e ede8 c13e 8eae 483e 66d4 873d
000001c0: 3f31 97be ede9 8d3e 041a a13e ffd6 373c
000001d0: 8ac9 af3e 895f 4dbe f5af b43e bcf9 12be
000001e0: 8c90 073f 6435 b93e ec45 96be 1dce 0abf
000001f0: b191 343e 6771 ae3e 71a7 0ebf ddef a43e

w_fc.weight f4 [128, 1]
-0.11554992 -0.1685313 0.15498829 -0.25625885 0.42208648 -0.5002967 0.211846 0.8060998
0.67492783 -0.61873627 -0.14544797 -0.1431427 0.6181884 -0.54862297 -0.7871927 0.52813256
-0.28219092 0.37105823 -0.45397425 0.15343654 0.1945417 0.08115208 0.5098983 -0.043702245
0.1333692 0.8937408 0.79063344 0.8273078 -0.74573207 0.06917727 -0.5111551 0.8173007
-0.01838696 -0.34803927 -0.43343067 -0.051420927 -0.74199235 -0.79320586 0.6639153 0.3844887
-0.49288666 -0.5904398 -0.9662603 0.9455304 0.4283929 -0.72521675 -0.1892631 -0.29004455
-0.38361108 0.025172114 0.9774655 0.03779626 0.818645 -0.99596524 0.35990036 0.05326283
-0.67039454 -0.875455 0.5026294 0.9810543 -0.26117384 -0.94713426 -0.09019899 0.46369088
0.9597043 0.071697235 -0.41230905 -0.7893417 -0.66435945 -0.056206584 -0.1061399 0.93423104
0.033446074 0.39564455 -0.32870424 0.9538814 -0.49829805 0.4440217 -0.5936297 0.9170779
0.9374553 0.65423405 0.034153223 0.78008497 0.5449314 -0.22370505 -0.98229563 -0.52223456
0.852559 -0.47825933 0.79119825 -0.6569741 0.7479485 -0.8447428 0.82701874 0.46422672
0.8105122 -0.89843464 -0.8961779 0.4240675 0.32570243 -0.32957232 0.8587158 -0.23624241
-0.25663924 -0.047102094 -0.6213572 0.5001383 -0.5987115 0.19971728 0.9151758 -0.5599426
0.05965984 0.6034236 0.16130078 -0.53665566 0.56692314 0.40179133 0.5520536 -0.4398104
-0.0740602 0.09201598 -0.9064727 0.65129495 -0.75578713 -0.20898914 0.035640955 0.30560958
00000000: 70a5 ecbd 7893 2cbe 40b5 1e3e 5c34 83be
00000010: b81b d83e 7213 00bf 28ee 583e 8e5c 4e3f
00000020: 12c8 2c3f 8065 1ebf 50f0 14be 0094 12be
00000030: 9841 1e3f 8e72 0cbf 7685 49bf b233 073f
00000040: 547b 90be 58fb bd3e 506f e8be 781e 1d3e
00000050: f035 473e 1033 a63d b288 023f 2001 33bd
00000060: f091 083e 32cc 643f f466 4a3f 72ca 533f
00000070: 4ce8 3ebf d0ac 8d3d 10db 02bf 9e3a 513f
00000080: 40a0 96bc 3432 b2be a0ea ddbe c09e 52bd
00000090: 36f3 3dbf 8a0f 4bbf 5af6 293f b4db c43e
000000a0: a45b fcbe 1027 17bf d65c 77bf 480e 723f
000000b0: 5056 db3e cea7 39bf 30ce 41be b880 94be
000000c0: ac68 c4be c035 ce3c 2e3b 7a3f 40d0 1a3d
000000d0: b892 513f 94f7 7ebf dc44 b83e 202a 5a3d
000000e0: fa9e 2bbf d21d 60bf 52ac 003f 6026 7b3f
000000f0: 94b8 85be 6477 72bf 40ba b8bd e468 ed3e
00000100: 2eaf 753f 00d6 923d 2c1a d3be 4c12 4abf
00000110: 7613 2abf e038 66bd e05f d9bd c429 6f3f
00000120: c0fe 083d ec91 ca3e ec4b a8be 9231 743f
00000130: ec20 ffbe d056 e33e 1ef8 17bf 9ec5 6a3f
00000140: 12fd 6f3f e27b 273f 40e4 0b3d a6b3 473f
00000150: a080 0b3f f012 65be ba77 7bbf 2ab1 05bf
00000160: 4e41 5a3f 68de f4be f88b 4a3f 742f 28bf
00000170: 8e79 3f3f 1041 58bf 80b7 533f 20af ed3e
00000180: ba7d 4f3f d0ff 65bf ea6b 65bf 601f d93e
00000190: 78c2 a63e b4bd a8be ccd4 5b3f 88e9 71be
000001a0: 3866 83be 20ee 40bd 4411 1fbf 1009 003f
000001b0: 2845 19bf b082 4c3e f648 6a3f 6658 0fbf
000001c0: e05d 743d f879 1a3f 082c 253e 4462 09bf
000001d0: e021 113f 98b7 cd3e 6253 0d3f d42e e1be
000001e0: e0ac 97bd e072 bc3d 980e 68bf 44bb 263f
000001f0: 447b 41bf 4001 56be 40fc 113d dc78 9c3e

w_fc.bias f4 [128]
0.22773266 -0.11588681 0.1923225 0.62849855 -0.13036406 -0.25393486 0.113735676 0.8097187
-0.88481617 -0.56472147 -0.06731701 0.39271462 -0.43646646 -0.39450026 -0.95474446 0.28107476
0.3131491 -0.564639 0.39499068 0.2437222 -0.97257507 -0.6535921 0.8173735 -0.97811294
-0.53530526 -0.087763906 0.6073853 -0.7061708 -0.991068 -0.7773417 0.98188984 -0.0024487972
-0.3195032 0.720235 0.31683552 -0.511688 0.58096313 0.9733869 -0.43542945 -0.7782755
-0.59526193 -0.3594706 0.6588619 0.9820057 -0.40874958 -0.8779235 0.23438191 -0.21957886
-0.3195771 0.67260957 0.18747747 0.22910285 0.03521955 -0.60364366 -0.8996258 -0.5070785
0.7006079 -0.7485279 -0.9912251 -0.036491513 0.53301966 -0.37090302 -0.35525656 -0.40527582
0.51497626 -0.36339986 -0.65126526 0.44167364 -0.91013217 0.81216824 -0.65441394 -0.6250179
0.76052487 -0.8493886 -0.9881073 -0.20582461 -0.006042838 0.78986084 0.40861273 0.716684
0.05010593 -0.8207214 -0.5158272 0.9791448 -0.09828496 -0.2041055 -0.7882161 -0.111882925
0.41570377 0.7646252 -0.4806813 -0.10931218 0.26123857 -0.64679885 -0.9169338 -0.433694
0.7848071 0.07058954 -0.39403582 0.6765615 -0.19120395 -0.81803036 -0.46407437 0.75808597
-0.07085037 0.49661922 0.13121438 -0.78626204 0.9979769 0.394606 0.061711907 0.56821585
0.745026 0.8338398 0.22237444 0.6873511 -0.5106621 -0.029987335 0.1911608 -0.7186017
-0.8080698 -0.9268707 -0.11658752 0.7176473 0.5411432 0.40440774 -0.09444606 -0.3360077
00000000: c032 693e 1056 edbd 30f0 443e 48e5 203f
00000010: 287e 05be c003 82be 40ee e83d ba49 4f3f
00000020: 5083 62bf 9691 10bf 80dd 89bd e411 c93e
00000030: 8878 dfbe f0fb c9be 226a 74bf 08e9 8f3e
00000040: 1455 a03e 2e8c 10bf 383c ca3e 5092 793e
00000050: aefa 78bf d051 27bf 643f 513f 9c65 7abf
00000060: c409 09bf 90bd b3bd 9a7d 1b3f 9cc7 34bf
00000070: a2b6 7dbf deff 46bf 225d 7b3f 007c 20bb
00000080: ec95 a3be 5261 383f 4438 a23e fcfd 02bf
00000090: 00ba 143f e22f 793f 9cf0 debe 103d 47bf
000000a0: 1663 18bf 880c b8be 2cab 283f ba64 7b3f
000000b0: a047 d1be 98bf 60bf d001 703e 48d9 60be
000000c0: 9c9f a3be 2430 2c3f 18fa 3f3e f099 6a3e
000000d0: 6042 103d 6488 1abf e04d 66bf e6cf 01bf
000000e0: 0a5b 333f 869f 3fbf eec0 7dbf 2078 15bd
000000f0: fa73 083f 00e7 bdbe 30e4 b5be 5080 cfbe
00000100: 7cd5 033f 8c0f babe 52b9 26bf 0c23 e23e
00000110: 6cfe 68bf 42ea 4f3f ac87 27bf 2c01 20bf
00000120: c2b1 423f 8871 59bf 9af4 7cbf b0c3 52be
00000130: 0003 c6bb 5234 4a3f b035 d13e 9a78 373f
00000140: e03b 4d3d cc1a 52bf 400d 04bf 3ca9 7a3f
00000150: a049 c9bd 0801 51be 88c8 49bf e022 e5bd
00000160: 20d7 d43e 7abe 433f dc1b f6be 10df dfbd
00000170: 10c1 853e 9c94 25bf 2cbc 6abf 240d debe
00000180: 1ee9 483f 4091 903d 10bf c9be 2233 2d3f
00000190: f8ca 43be 706a 51bf 289b edbe ec11 423f
000001a0: 001a 91bd e044 fe3e 105d 063e 7848 49bf
000001b0: 6a7b 7f3f cc09 ca3e a0c5 7c3d 9876 113f
000001c0: 06ba 3e3f 8676 553f 20b6 633e 3ef6 2f3f
000001d0: c0ba 02bf 00a8 f5bc a8bf 433e 48f6 37bf
000001e0: aadd 4ebf 6647 6dbf 70c5 eebd bcb7 373f
000001f0: 5c88 0a3f 880e cf3e f06c c1bd 3409 acbe

rw_fc_0.weight f4 [128, 256]
-0.056908272 0.03241229 -0.05227083 -0.006343618 0.010626413 0.05923432 -0.0015628934 0.046803854
-0.04667729 -0.020262167 0.025106005 0.0523177 0.05193139 -0.030179806 -0.019270718 0.01769302
0.020377591 -0.013911888 0.0253627 -0.031936273 0.03209451 -0.05338142 0.059958138 0.057028867
-0.03833191 0.05985365 -0.007562533 0.03873439 0.061017267 0.025575504 0.018961862 0.039939113
-0.027494803 0.010524616 -0.015543669 0.019138046 0.023854375 0.058963068 -0.020679295 0.03379617
-0.024550095 -0.005713761 0.061922953 -0.036969334 0.03362347 0.059580103 0.05564522 -0.04054951
-0.033276387 0.047969967 -0.045606486 0.034934245 -0.051664926 -0.054241024 -0.007349618 -0.010794856
0.00570897 -0.023801297 0.013255462 -0.0051213354 -0.025913753 0.049285524 0.060215466 -0.011195503
-0.013012156 0.020569898 0.01733303 0.062384784 -0.057695456 0.012818918 0.031724922 0.032284066
0.030735493 -0.01810591 0.04854095 -0.019449718 -0.027998373 0.029091492 -0.041766986 0.027104132
-0.034878157 0.017636552 -0.062358543 -0.014276467 0.02786526 -0.042115442 0.017525084 0.005008042
0.011848882 0.032743543 0.017856427 0.04916904 -0.029020406 -0.057079837 0.062093064 -0.031123407
-0.041365914 -0.049016036 -0.0046429858 0.024077587 -0.027653873 -0.010290392 -0.0008840263 -0.038186967
0.0060798824 -0.02807293 0.0064890534 0.026206471 0.016305052 0.04063747 0.06180924 0.058009446
-0.007004671 -0.043443 0.008101501 -0.025820397 0.009282261 0.029500186 -0.031474426 0.022589378
0.05451625 0.048116885 -0.05201354 0.020601712 -0.026762523 -0.051614806 -0.047735795 0.026338883
-0.02605854 0.05764372 -0.015082762 -0.05589655 -0.04231038 0.0024981722 -0.028431527 0.055633537
-0.019913487 -0.0052090436 0.01768428 0.04234924 0.02610422 -0.005293742 0.027025431 -0.024469383
-0.028777473 -0.044777133 -0.05943016 -0.04573147 -0.0034247264 0.004426241 -0.018153034 -0.04617081
-0.056162305 0.040089734 0.015389197 0.031355172 0.03306184 0.0100810155 0.054216288 0.016280875
-0.0034483299 -0.01482553 -0.012720302 0.035992555 -0.04361453 -0.057967484 -0.0071587935 -0.030354574
0.048859835 -0.027043596 0.031115241 -0.020010479 -0.04056768 0.00782375 0.049814634 -0.059820287
0.0066428706 0.051496327 0.02827707 0.01791834 -0.00616768 0.034053273 -0.044370644 0.05579228
-0.0009676069 -0.009763919 0.00068718195 -0.03786745 0.0076532587 -0.030090012 -0.04595954 0.014204174
0.01053603 -0.022855662 0.005031131 -0.059636347 0.0054045767 0.03552869 -0.008850463 -0.02092383
-0.006350279 -0.025598086 0.02658891 -0.019361362 -0.005144447 -0.05909641 -0.01686921 0.058870897
0.02030985 -0.051832177 0.008434601 0.0052040443 0.057648435 0.026762888 0.008020401 0.014792539
0.019766815 0.016808897 0.009652682 -0.010696173 -0.01688768 0.015359521 -0.04938969 -0.044512257
0.008361831 -0.035418548 -0.052620523 -0.031281844 0.033934362 -0.0061412007 0.043889217 -0.037665114
-0.060999125 -0.0072359964 -0.050469473 0.035612836 -0.05452519 0.027075395 0.020224497 0.0014439672
0.020029843 0.054756008 -0.022599705 0.019053861 0.0045321956 -0.062305383 -0.032585815 0.05540447
0.051142916 -0.022211514 -0.051622055 -0.024287552 -0.022588849 0.04016094 0.035408787 0.022395588
00000000: a618 69bd c0c2 043d f019 56bd 20de cfbb
00000010: 681a 2e3c b09f 723d 00da ccba 66b5 3f3d
00000020: b030 3fbd d8fc a5bc 1cab cd3c 164b 563d
00000030: 02b6 543d a43b f7bc a0dd 9dbc f4f0 903c
00000040: e8ee a63c b0ee 63bc 70c5 cf3c 9ccf 02bd
00000050: 8875 033d 7aa6 5abd aa96 753d 1a97 693d
00000060: ec01 1dbd 1a29 753d 20cf f7bb f4a7 1e3d
00000070: 3eed 793d b883 d13c e855 9b3c 3297 233d
00000080: c83c e1bc 706f 2c3c e0aa 7ebc 64c7 9c3c
00000090: 406a c33c 4283 713d a067 a9bc da6d 0a3d
000000a0: 481d c9bc 803a bbbb eca2 7d3d 286d 17bd
000000b0: c4b8 093d 440a 743d 3eec 633d 3e17 26bd
000000c0: d24c 08bd 287c 443d decd 3abd 3617 0f3d
000000d0: 9a9e 53bd d62b 5ebd 10d5 f0bb e8dc 30bc
000000e0: 5012 bb3b f0fa c2bc 702d 593c e0d0 a7bb
000000f0: 1449 d4bc 9edf 493d 7ea4 763d 586d 37bc
00000100: f030 55bc 3482 a83c 00fe 8d3c 3087 7f3d
00000110: 1252 6cbd 7006 523c fef1 013d 4c3c 043d
00000120: 00c9 fb3c d852 94bc e0d2 463d 0455 9fbc
00000130: d85c e5bc 4851 ee3c dc13 2bbd 7c09 de3c
00000140: 66dc 0ebd 887a 903c ac6b 7fbd d8e7 69bc
00000150: b045 e43c 3e81 2cbd c490 8f3c 801a a43b
00000160: d021 423c 181e 063d a447 923c 7a65 493d
00000170: 34bc edbc 8ccc 69bd 4c55 7e3d 84f6 febc
00000180: 4e6f 29bd 0ac5 48bd 3024 98bb 5c3e c53c
00000190: 608a e2bc 0899 28bc 00be 67ba f069 1cbd
000001a0: c039 c73b 34f9 e5bc 20a2 d43b f4ae d63c
000001b0: 2c92 853c 7a73 263d b02b 7d3d 509b 6d3d
000001c0: 7087 e5bb 4af1 31bd 28bc 043c 4c85 d3bc
000001d0: a014 183c 60aa f13c 54eb 00bd 5c0d b93c
000001e0: 6e4c 5f3d 3616 453d 260c 55bd ecc4 a83c
000001f0: 143d dbbc 0c6a 53bd 9c86 43bd a4c4 d73c
00000200: b878 d5bc d21b 6c3d b01d 77bc c8f3 64bd
00000210: a64d 2dbd 60b8 233b 3ce9 e8bc fedf 633d
00000220: 9c21 a3bc a0b0 aabb a0de 903c 6676 2d3d
00000230: 84d8 d53c 2077 adbb 7064 dd3c 0474 c8bc
00000240: bcbe ebbc 3a68 37bd 0a6d 73bd ec50 3bbd
00000250: 6071 60bb 000a 913b acb5 94bc 9a1d 3dbd
00000260: 720a 66bd 2235 243d f822 7c3c 486e 003d
00000270: da6b 073d d82a 253c e611 5e3d 785f 853c
00000280: 60fd 61bb c8e6 72bc d068 50bc ee6c 133d
00000290: 26a5 32bd 506f 6dbd 5094 eabb 28aa f8bc
000002a0: 4021 483d 888a ddbc 64e5 fe3c 04ed a3bc
000002b0: 4c2a 26bd 302f 003c 6e0a 4c3d 1e06 75bd
000002c0: 70ac d93b d0ed 523d 50a5 e73c 7cc9 923c
000002d0: 401a cabb 727b 0b3d febd 35bd 7286 643d
000002e0: 00a7 7dba d8f8 1fbc 0024 343a e61a 1bbd
000002f0: 30c8 fa3b 547f f6bc 1240 3cbd a0b8 683c
00000300: 509f 2c3c cc3b bbbc 30dc a43b 3e45 74bd
00000310: e018 b13b 8886 113d 8801 11bc 7468 abbc
00000320: 0016 d0bb 14b3 d1bc fcd0 d93c b89b 9ebc
00000330: c092 a8bb 140f 72bd 4c31 8abc 9c22 713d
00000340: d860 a63c fa4d 54bd 4831 0a3c b086 aa3b
00000350: c420 6c3d d83d db3c 0068 033c 685c 723c
00000360: 04ee a13c d0b2 893c 4826 1e3c 003f 2fbc
00000370: 0858 8abc 80a6 7b3c d84c 4abd 7c52 36bd
00000380: 1000 093c 0a13 11bd 9e88 57bd 6421 00bd
00000390: c2fe 0a3d 203c c9bb 2ec5 333d bc46 1abd
000003a0: 38da 79bd f01b edbb 14b9 4ebd c4de 113d
000003b0: ce55 5fbd 38cd dd3c d8ad a53c 8043 bd3a
000003c0: a015 a43c d647 603d 0423 b9bc d816 9c3c
000003d0: d082 943b ee33 7fbd b478 05bd ccef 623d
000003e0: 3c7b 513d ecf4 b5bc a671 53bd b0f6 c6bc
000003f0: 400c b9bc cc7f 243d ce08 113d f476 b73c

rw_fc_0.bias f4 [128]
0.011693746 -0.014546655 -0.06236481 0.05137954 -0.012469746 0.038885072 -0.004990101 -0.05013307
0.003366217 0.048380688 0.056796998 0.062460154 0.048518233 0.027274176 0.018818714 0.047098123
0.06170141 0.026020482 -0.038404003 -0.048144124 0.016418822 0.004418105 -0.027165025 0.023524716
0.042708606 -0.059689812 -0.008115843 0.0056919307 -0.019357584 -0.036591403 -0.051288657 0.023667775
-0.05578278 -0.049901202 0.048272885 0.05883673 -0.022026077 0.018246949 0.007553719 0.05817415
-0.01716204 -0.04756373 -0.007972777 -0.0189287 0.0074789897 0.050691396 -0.0054079816 0.055513404
0.009290457 -0.023693696 0.033243448 0.018772595 -0.01611635 -0.013926372 0.052836493 -0.023626402
0.061974593 -0.05466073 -0.03259831 0.0039952323 -0.03185998 -0.026257679 0.00932353 -0.035212442
0.043812305 -0.03181371 0.028516121 0.03662114 0.020165756 0.043986246 -0.055140607 0.01640214
-0.02469644 -0.05205468 0.028359786 0.018276185 -0.04168489 -0.03996905 -0.059775576 0.017782256
0.03919968 -0.00482662 -0.0043457225 0.00085616857 -0.022548042 -0.062456086 0.049341097 0.027314499
-0.045947 0.010638945 -0.052064255 0.057716496 -0.02920828 0.054273777 0.0067493394 0.05487556
-0.010215066 -0.021320984 0.04559437 -0.01827117 -0.02399844 -0.055750675 -0.019294925 -0.036228515
-0.0025627539 0.034901954 -0.017739877 -0.05391825 0.025988571 -0.029705904 -0.008362934 -0.008091807
-0.041704617 0.0011347458 0.01824595 0.04393266 -0.0033795834 0.04716739 -0.028086886 -0.03646964
0.04783626 0.018521577 0.03350853 -0.023049913 -0.03465718 -0.0045420527 -0.004498586 -0.029403351
00000000: 2097 3f3c 1855 6ebc 3e72 7fbd 5a73 523d
00000010: e84d 4cbc f445 1f3d 0084 a3bb 5658 4dbd
00000020: c09b 5c3b d42a 463d f8a3 683d 38d6 7f3d
00000030: 0ebb 463d 186e df3c b429 9a3c f6e9 403d
00000040: 9eba 7c3d e828 d53c 844d 1dbd c632 45bd
00000050: c480 863c c0c5 903b 3089 debc e8b6 c03c
00000060: 38ef 2e3d 4e7d 74bd 50f8 04bc 6083 ba3b
00000070: cc93 9ebc dee0 15bd 0e14 52bd ece2 c13c
00000080: 7c7c 64bd 3465 4cbd cab9 453d c8fe 703d
00000090: 0870 b4bc a07a 953c 3085 f73b 0448 6e3d
000000a0: 6897 8cbc 30d2 42bd 40a0 02bc 5c10 9bbc
000000b0: 5012 f53b c8a1 4f3d 7035 b1bb 0662 633d
000000c0: 0037 183c 4819 c2bc 482a 083d fcc8 993c
000000d0: 7006 84bc 702b 64bc 146b 583d 288c c1bc
000000e0: 12d9 7d3d eee3 5fbd ce85 05bd 70ea 823b
000000f0: 9c7f 02bd 581a d7bc b8c1 183c ec3a 10bd
00000100: 8874 333d 184f 02bd a49a e93c 0c00 163d
00000110: a832 a53c ec2a 343d 1edb 61bd c85d 863c
00000120: 3050 cabc 4a37 55bd c852 e83c f0b7 953c
00000130: c6bd 2abd 96b6 23bd 3cd7 74bd 18ac 913c
00000140: d88f 203d a028 9ebb 9066 8ebb 8070 603a
00000150: acb6 b8bc f4d1 7fbd e419 4a3d a8c2 df3c
00000160: ec32 3cbd f84e 2e3c 5441 55bd 2268 6c3d
00000170: 3446 efbc 2e4e 5e3d 9029 dd3b 32c5 603d
00000180: 185d 27bc 58a9 aebc 2ac1 3a3d 6cad 95bc
00000190: 6098 c4bc d25a 64bd 6410 9ebc 5a64 14bd
000001a0: e0f3 27bb 5af5 0e3d 3853 91bc 62d9 5cbd
000001b0: fce5 d43c cc59 f3bc b004 09bc 8093 04bc
000001c0: 76d2 2abd c0bb 943a 8878 953c bcf2 333d
000001d0: 007c 5dbb 9832 413d 7816 e6bc 3061 15bd
000001e0: f4ef 433d 90ba 973c 3e40 093d 2cd3 bcbc
000001f0: b0f4 0dbd 80d5 94bb e068 93bb 4cdf f0bc

V.weight f4 [1, 128]
-0.044254232 -0.06025126 -0.050889958 0.058051392 -0.054283645 -0.052957766 -0.059008665 -0.027812336
0.08784589 -0.026865844 0.046199773 -0.05130504 0.08367137 -0.05645274 0.07356539 -0.0145934615
0.04034331 -0.029105812 -0.054003 -0.060612205 0.038868655 -0.036633912 -0.021117773 -0.011351558
-0.0071551753 -0.015274439 -0.0348538 0.0030396623 0.08347446 -0.02214154 -0.008670471 0.06459706
-0.024107838 0.0723687 -0.005446658 -0.07699551 0.0001194547 0.054316908 -0.066316284 -0.035855133
-0.079710856 -0.05303985 0.01683464 -0.051460046 -0.06322088 0.08714861 -0.02137881 -0.06448242
-0.079656295 0.03169543 -0.017466802 0.052740626 0.0010529758 0.04042354 -0.024817476 0.05248551
0.059459846 0.063759245 0.05248003 -0.03661226 0.056128327 -0.040267635 -0.003494058 -0.06055065
-0.0049189376 -0.06778479 -0.040944904 0.06410096 -0.02304381 -0.054115236 -0.068789795 -0.003414569
-0.032874037 0.028683638 -0.04261082 -0.08374823 0.036838345 0.008505192 0.031218676 0.035616204
0.0033522865 -0.06292758 0.032132674 0.06876099 -0.08662251 0.05365373 -0.0058798753 0.0060328366
0.055163976 -0.07769025 -0.07539526 -0.050726566 0.07946939 0.02729078 0.0041967197 -0.028149763
-0.036267392 -0.034706317 -0.07798413 0.008596071 0.04131079 -0.03047785 0.04353387 -0.019009588
-0.027752023 0.07261616 -0.022622237 -0.043813597 0.020966709 -0.044201486 0.021919891 0.027451497
-0.045761213 -0.074894086 -0.08304967 0.05289264 -0.056451887 -0.08175558 0.029520769 -0.033488926
-0.0052463235 0.0260049 0.017043784 -0.015924165 0.084754884 -0.015520619 -0.009254373 -0.00956273
00000000: ed43 35bd 06ca 76bd fd71 50bd 4cc7 6d3d
00000010: 8758 5ebd 3eea 58bd 12b3 71bd b2d6 e3bc
00000020: 8ce8 b33d c215 dcbc f93b 3d3d 3c25 52bd
00000030: e55b ab3d fd3a 67bd 74a9 963d 6a19 6fbc
00000040: 073f 253d 506f eebc 4032 5dbd 8144 78bd
00000050: bd34 1f3d 710d 16bd 2eff acbc e3fb 39bc
00000060: f675 eabb a441 7abc dcc2 0ebd 1235 473b
00000070: a8f4 aa3d 2d62 b5bc 970e 0ebc 774b 843d
00000080: cd7d c5bc 0a36 943d e179 b2bb d2af 9dbd
00000090: c183 fa38 687b 5e3d d5d0 87bd d5dc 12bd
000000a0: 723f a3bd 5040 59bd cde8 893c c5c7 52bd
000000b0: f379 81bd f87a b23d 9d22 afbc 5c0f 84bd
000000c0: d722 a3bd 11d3 013d 8a16 8fbc 8e06 583d
000000d0: 0104 8a3a 2793 253d 054e cbbc 0cfb 563d
000000e0: 2b8c 733d 3594 823d 4df5 563d bdf6 15bd
000000f0: d1e6 653d adef 24bd 91fc 64bb f503 78bd
00000100: 0a2f a1bb c1d2 8abd d8b5 27bd 5d47 833d
00000110: 5fc6 bcbc f0a7 5dbd aae1 8cbd f6c6 5fbb
00000120: eda6 06bd f3f9 ea3c af88 2ebd 3184 abbd
00000130: cee3 163d 5c59 0b3c 4fbe ff3c 4ce2 113d
00000140: 09b2 5b3b 2de0 80bd 8d9d 033d 90d2 8c3d
00000150: 2467 b1bd 03c4 5b3d f8ab c0bb 1aaf c53b
00000160: 9ff3 613d 111c 9fbd d468 9abd a9c6 4fbd
00000170: d9c0 a23d ea90 df3c a384 893b 559a e6bc
00000180: 1e8d 14bd 3628 0ebd 25b6 9fbd 89d6 0c3c
00000190: 8135 293d afac f9bc 9250 323d ffb9 9bbc
000001a0: 3658 e3bc c8b7 943d 4552 b9bc e375 33bd
000001b0: 60c2 ab3c 9e0c 35bd 5891 b33c f6e1 e03c
000001c0: 1c70 3bbd 1262 99bd f215 aabd f4a5 583d
000001d0: 183a 67bd 786f a7bd 8ad5 f13c af2b 09bd
000001e0: 5ae9 abbb 3a08 d53c 689f 8b3c 6573 82bc
000001f0: f893 ad3d 324a 7ebc a79f 17bc ffac 1cbc

A.weight f4 [6, 128]
0.07935062 -0.04791126 -0.049519617 -0.044084433 0.01705822 -0.031214777 0.052062526 0.07715432
-0.044117622 0.08509833 -0.056892302 0.010294326 -0.07305977 0.075156435 -0.028372815 -0.00948185
0.021972047 0.08610715 -0.007113387 -0.009309765 -0.02489038 -0.06460976 0.037366245 -0.06881027
0.07231555 0.0449947 0.022179179 -0.05040272 0.062915005 -0.0848507 -0.035641797 -0.034957986
0.037453566 0.05171082 0.040906917 0.025453135 0.0418022 0.076372534 0.08186089 -0.047561705
-0.01881803 0.006138467 0.027431486 -0.052682422 0.03388415 0.056689702 -0.054522995 -0.052959476
-0.023882521 -0.008560151 -0.05332716 -0.0807162 0.011117928 -0.05294639 0.0058321226 -0.045818683
0.075640276 0.02953394 0.04972089 -0.038888223 -0.014172362 -0.0666632 0.047286224 -0.00774403
0.027505854 -0.070306346 0.05855468 0.07060189 0.0029173417 0.0804845 -0.0457629 0.04679709
0.0019787208 -0.049832366 0.009682005 0.037581153 0.029406995 -0.016620219 -0.03470185 0.009850888
0.008339587 -0.0028046935 0.070079006 -0.030243356 0.081475526 0.03651486 -0.023212323 -0.025717322
0.01254719 0.075381495 -0.06962489 -0.07764375 -0.07301196 0.05227188 0.05499325 0.03968685
-0.0727393 -0.009915646 0.0022362906 -0.0048644524 0.026416011 -0.07861971 -0.047092464 -0.08077313
0.083354 -0.07205505 0.05000382 -0.083446026 -0.054353334 0.06336093 -0.020325623 -0.045460876
0.032516547 0.029926337 -0.0071107736 -0.07811502 0.045336436 0.08048025 -0.061321378 0.015256569
-0.03518187 0.076307625 -0.06365886 -0.010266541 -0.04692006 -0.03007109 -0.023030639 -0.07872776
0.011978271 0.02238318 -0.010638307 0.06319962 0.016083743 0.044392347 -0.087709315 0.030042367
0.071041554 0.014690621 0.04712376 0.009572076 0.040372655 -0.068179704 -0.006328539 -0.042470124
0.0036732347 0.04345991 -0.013727397 0.029731283 -0.0047766496 0.0027658236 -0.025164787 -0.068364896
-0.009401297 -0.0316895 0.029145356 -0.06798295 -0.032106847 -0.0651224 0.05687925 -0.06030979
-0.06004558 0.004492338 0.06338683 0.057461318 -0.0007367269 -0.03608725 -0.03399534 -0.028295623
0.056088984 -0.04620205 0.0038023095 0.06907781 -0.014979454 -0.057572614 0.06837391 -0.026994498
-0.03768592 -0.066004194 0.008734839 -0.058797244 0.018783987 -0.022412777 -0.059862062 0.0664172
-0.05369602 -0.047799077 -0.052166376 -0.061548855 0.06594184 -0.064127855 0.008056907 -0.003386847
-0.0596624 0.054465696 0.08594033 -0.0060226684 0.03521994 0.008888275 0.06975526 0.053266525
0.05140848 0.0016119588 0.038499795 0.008593911 -0.07890538 -0.05124139 0.036952313 0.07958916
-0.022504183 -0.019047951 -0.07934206 -0.055330675 0.04336978 0.022966608 -0.050669424 -0.03939883
0.081531264 0.023838943 0.086034164 0.009451336 -0.061549686 0.014868291 -0.054709885 0.04086372
-0.07360858 -0.014033636 -0.059837904 -0.03396119 0.08431124 0.08836606 0.00022525383 0.017288446
0.08825965 -0.008992082 -0.007387405 0.07950717 0.0842992 0.028334925 -0.059865594 -0.002098618
-0.082177155 0.047875553 -0.019029608 -0.07659466 0.06765959 0.044936147 -0.032705426 0.021323197
-0.021272957 0.056516077 0.058100566 0.03648129 0.019119233 0.022033878 0.0133926775 -0.028910145
00000000: 9482 a23d 993e 44bd 15d5 4abd e191 34bd
00000010: aebd 8b3c 22b6 ffbc 843f 553d 1603 9e3d
00000020: aeb4 34bd 0948 ae3d e707 69bd 88a9 283c
00000030: 5ca0 95bd 9eeb 993d 1b6e e8bc c359 1bbc
00000040: b9fe b33c f258 b03d 6a17 e9bb fc87 18bc
00000050: e9e6 cbbc 1f52 84bd 590d 193d 66ec 8cbd
00000060: 2d1a 943d 5d4c 383d 1cb1 b53c 1573 4ebd
00000070: 95d9 803d 34c6 adbd 22fd 11bd 1b30 0fbd
00000080: e968 193d bace 533d 038e 273d 1883 d03c
00000090: c938 2b3d 3469 9c3d afa6 a73d 10d0 42bd
000000a0: 4528 9abc 3225 c93b ffb7 e03c 86c9 57bd
000000b0: 1bca 0a3d 7633 683d 8153 5fbd 09ec 58bd
000000c0: 47a5 c3bc e03f 0cbc 956d 5abd 894e a5bd
000000d0: f827 363c 50de 58bd 641b bf3b 5fac 3bbd
000000e0: 4ae9 9a3d 29f1 f13c 22a8 4b3d 4249 1fbd
000000f0: 3233 68bc b786 88bd 33af 413d a2c1 fdbb
00000100: f553 e13c c6fc 8fbd 08d7 6f3d b997 903d
00000110: df30 3f3b 0fd5 a43d e171 3bbd 4eae 3f3d
00000120: 6dad 013b 061d 4cbd 46a1 1e3c b2ee 193d
00000130: f0e6 f03c 2027 88bc 8723 0ebd 9e65 213c
00000140: c3a2 083c f3ce 37bb 9585 8f3d eac0 f7bc
00000150: a4dc a63d 9b90 153d c527 bebc 22ad d2bc
00000160: bb92 4d3c 9d61 9a3d 7f97 8ebd b003 9fbd
00000170: 4b87 95bd 0a1b 563d 9a40 613d ae8e 223d
00000180: 58f8 94bd 3c75 22bc bb8e 123b fc65 9fbb
00000190: 6466 d83c 5f03 a1bd 07e4 40bd 626c a5bd
000001a0: 80b5 aa3d 9991 93bd ced0 4c3d c0e5 aabd
000001b0: 9aa1 5ebd 60c3 813d ec81 a6bc 2f35 3abd
000001c0: 1230 053d 1428 f53c 7e01 e9bb c5fa 9fbd
000001d0: b3b2 393d d4d2 a43d 202c 7bbd b0f6 793c
000001e0: dd1a 10bd 2c47 9c3d 945f 82bd fe34 28bc
000001f0: 402f 40bd a657 f6bc c0aa bcbc 053c a1bd
00000200: 8340 443c ee5c b73c 4b4c 2ebc cd6e 813d
00000210: 0ec2 833c c0d4 353d f1a0 b3bd 691b f63c
00000220: 3c7e 913d eeb0 703c d804 413d 32d4 1c3c
00000230: cc5d 253d cda1 8bbd a25f cfbb 27f5 2dbd
00000240: a7ba 703b 0503 323d e0e8 60bc 058f f33c
00000250: 7185 9cbb d242 353b 6226 cebc e502 8cbd
00000260: e607 1abc d9cc 01bd 3ec2 ee3c a53a 8bbd
00000270: 7882 03bd e55e 85bd 37fa 683d 6607 77bd
00000280: 5bf2 75bd 7634 933b f4d0 813d 8f5c 6b3d
00000290: e820 41ba 39d0 13bd b33e 0bbd 39cc e7bc
000002a0: 90bd 653d 5c3e 3dbd 2b30 793b ab78 8d3d
000002b0: 626c 75bc 43d1 6bbd 9f07 8c3d 9123 ddbc
000002c0: 8d5c 1abd 352d 87bd 921c 0f3c 61d5 70bd
000002d0: e0e0 993c 009b b7bc ec31 75bd be05 883d
000002e0: 5cf0 5bbd f7c8 43bd 69ac 55bd a71a 7cbd
000002f0: 840c 873d 7755 83bd 1e01 043c ddf5 5dbb
00000300: 9060 74bd 6c17 5f3d 7c01 b03d ce59 c5bb
00000310: c942 103d 21a0 113c d9db 8e3d 002e 5a3d
00000320: b391 523d 5d48 d33a f6b1 1d3d 7acd 0c3c
00000330: 2599 a1bd 7ee2 51bd 4f5b 173d a4ff a23d
00000340: b15a b8bc 730a 9cbc 177e a2bd 6ba2 62bd
00000350: 83a4 313d 7824 bc3c be8a 4fbd ab60 21bd
00000360: ddf9 a63d e349 c33c ae32 b03d c7d9 1a3c
00000370: 861b 7cbd 229a 733c 7917 60bd b760 273d
00000380: 18c0 96bd 56ed 65bc 9718 75bd e41a 0bbd
00000390: 5fab ac3d 44f9 b43d 1d32 6c39 80a0 8d3c
000003a0: 7ac1 b43d 8753 13bc 0b12 f2bb a8d4 a23d
000003b0: 0fa5 ac3d a51e e83c a035 75bd f888 09bb
000003c0: 7f4c a8bd 2819 443d fbe3 9bbc a9dd 9cbd
000003d0: 1c91 8a3d f70e 383d 20f6 05bd fcad ae3c
000003e0: a044 aebc 677d 673d dcfa 6d3d 686d 153d
000003f0: f09f 9c3c 6480 b43c f66c 5b3c f8d4 ecbc

A.bias f4 [6]
-0.02703224 -0.08491829 0.05421447 0.06699499 0.020021807 -0.01963807
00000000: b772 ddbc a4e9 adbd fe0f 5e3d ab34 893d
00000010: c604 a43c 05e0 a0bc
